test_data/MyFirstLeNet.pt (torch, 181438 bytes, 10 tensors)

conv.0.weight f4 [6, 1, 5, 5]
0	0x3f75101a	0.95727694
1	0xbea47208	-0.3211825
2	0xbf38d95f	-0.7220668
3	0xbfc5679d	-1.5422245
4	0xbf248fbf	-0.6428184
5	0x3f4f42a5	0.80961066
6	0x3f49e365	0.788626
7	0xbe93e4b0	-0.28885412
8	0xc0033a81	-2.0504458
9	0xbe169fd9	-0.14709415
10	0x3f5093b4	0.8147538
11	0x3f00d0c4	0.5031855
12	0xbed209f6	-0.41023225
13	0xbf350654	-0.7071278
14	0xbca76d3d	-0.020437831
15	0x3f972040	1.1806717
16	0x3f762ead	0.9616497
17	0xbf1c4f4e	-0.6105851
18	0xbf3615a1	-0.71126753
19	0xbf2caf94	-0.6745541
20	0x3f9aee6f	1.2104014
21	0x3ee86c94	0.4539534
22	0xbe65e97f	-0.22452353
23	0xbf8a4fbd	-1.0805584
24	0xbe95bf25	-0.29247394
25	0x3ecc4852	0.39898926
26	0x3e812e12	0.2523046
27	0x3f873ff8	1.0566397
28	0x3f00d51a	0.5032517
29	0xbd705b86	-0.058681034
30	0x40790ac2	3.8912816
31	0x40d83b27	6.7572207
32	0x40ce1622	6.4402018
33	0x3fb3c2ce	1.4043825
34	0xbec6ad6d	-0.38804188
35	0x402a8b64	2.6647577
36	0x40fab3c0	7.834442
37	0x40df5b81	6.97992
38	0x3f58c109	0.8466955
39	0xbe62f3a6	-0.22163257
40	0xbf9bdede	-1.2177389
41	0x40ce646b	6.449758
42	0x4080cf22	4.025285
43	0xbf050e90	-0.51975346
44	0xbefa6fad	-0.48913327
45	0xbe9b136c	-0.30288255
46	0x401217af	2.2826955
47	0x3f7e1e53	0.9926502
48	0xbe8332c0	-0.25624657
49	0xbedcfd41	-0.43161967
50	0xbf225db7	-0.6342425
51	0x3eac8b7a	0.33700162
52	0xbf9d6adc	-1.2298236
53	0xbf4bdc5c	-0.79633117
54	0x3e30f6a7	0.1728159
55	0xbfd4e49c	-1.6632266
56	0xc0a31e9b	-5.097486
57	0xc1129052	-9.160234
58	0xc0292d00	-2.6433716
59	0xbcc0a93a	-0.023518194
60	0x3ec9bfcb	0.3940414
61	0xbfb6c7e4	-1.4279752
62	0xc075bd6d	-3.8396866
63	0xbfc56a28	-1.5423021
64	0x3f6dd4cb	0.9290282
65	0x3ead69db	0.33869824
66	0x3e3b59a3	0.18295912
67	0xbeece87c	-0.46271122
68	0x3e8e8010	0.2783208
69	0x3f00e0b0	0.50342846
70	0x3f61422c	0.87991595
71	0xbecc07ff	-0.3984985
72	0xbf004ab5	-0.50113994
73	0x3e8ee3ed	0.2790827
74	0x3e7ad8b6	0.24496731
75	0xbe4a69a5	-0.19766863
76	0xbe9bff99	-0.30468443
77	0xbf8e0c1b	-1.1097444
78	0xbe3e04f5	-0.18556578
79	0x3ef53a83	0.47896203
80	0x3e401adf	0.1876025
81	0xbe5e50f6	-0.21710572
82	0xbf98d86c	-1.1941047
83	0xbea745a0	-0.32670307
84	0x3f3491df	0.7053508
85	0x3e3ccc54	0.1843732
86	0x3ec6e1c2	0.38844115
87	0xbf0b4a39	-0.5441013
88	0xbd05d97a	-0.032678105
89	0x3f208284	0.6269915
90	0x3db19a0e	0.08671962
91	0x3eafb956	0.34321088
92	0xbf073911	-0.5282145
93	0x3def9c0b	0.11699685
94	0x3f2221b6	0.6333269
95	0x3ee60d05	0.44931808
96	0x3e5787a4	0.21047837
97	0xbeee5a6f	-0.4655337
98	0x3c4a953e	0.012364684
99	0x3f763947	0.9618115
100	0x3f87707e	1.0581205
101	0x3f5ce802	0.86291516
102	0x3f3f0395	0.7461484
103	0x3f240a55	0.64078265
104	0x3e8a6f43	0.2703801
105	0x3fd97d51	1.6991369
106	0x40ce8abe	6.4544363
107	0x40ed74dc	7.420515
108	0x4081909a	4.0489016
109	0x3f4a0196	0.7890867
110	0x3f1e9a6f	0.61954397
111	0x409f3416	4.975108
112	0x40ff7aa5	7.9837213
113	0x404d43fb	3.2072742
114	0xbee6bc16	-0.45065373
115	0xbfdbbdab	-1.7167257
116	0x3f4167b5	0.7554887
117	0x4080d03f	4.0254207
118	0x3e21d889	0.15805258
119	0xbf424602	-0.75888073
120	0xbf80eb72	-1.0071852
121	0x3f4682ad	0.77543145
122	0x3fd1c218	1.6387358
123	0x3ea025e0	0.31278896
124	0xbd29dee7	-0.041472342
125	0xbe127d4a	-0.14305606
126	0x3eee5abb	0.46553597
127	0x3f69fc6c	0.9140079
128	0x3ef73d83	0.48289117
129	0x3e9cd56b	0.30631575
130	0x3fdcfcf6	1.7264698
131	0x40967bfb	4.7026343
132	0x40f88991	7.766793
133	0x40204507	2.504213
134	0x3e3198bb	0.17343418
135	0x3f33d30d	0.7024391
136	0x402f8743	2.7426307
137	0x40b64669	5.696095
138	0x3ef956d9	0.48699072
139	0xbe320b33	-0.17387085
140	0xbfe1e9c6	-1.7649467
141	0xbfba28ad	-1.4543663
142	0x4021ca98	2.5279903
143	0xbdd328ec	-0.103105396
144	0xbf39f8dd	-0.7264536
145	0xc0298c71	-2.6491969
146	0xbe71a1eb	-0.23596923
147	0x40060586	2.0940871
148	0x3dfbd1a5	0.12295846
149	0xbe818759	-0.25298575

conv.0.bias f4 [6]
0	0x3f24a637	0.64316124
1	0xbf643bde	-0.8915385
2	0x3f1efe89	0.6210714
3	0xbe8aa371	-0.2707782
4	0xbf63e14d	-0.89015657
5	0xbf7841a6	-0.9697517

conv.3.weight f4 [16, 6, 5, 5]
0	0x3e2608da	0.16214314
1	0x3efd08f6	0.494209
2	0x3e2a20bd	0.16614051
3	0xbe6687d3	-0.2251275
4	0x3f0c051d	0.546953
5	0xbd4178ff	-0.04723453
6	0xbc41f9e3	-0.011839363
7	0xbecf727a	-0.40517026
8	0xbeb471c8	-0.35243058
9	0xbe2d28c9	-0.1691009
10	0x3dbc25c0	0.09186888
11	0xbd841ff0	-0.06451404
12	0xbf16c9a3	-0.58901423
13	0xbb166fe4	-0.0022954876
14	0x3d464e6b	0.04841463
15	0x3ea2b93c	0.31781948
16	0x3eca339a	0.39492494
17	0xbebfb59f	-0.37443253
18	0xbcd10290	-0.025513917
19	0x3e0ff0fb	0.1405677
20	0x3dc75fd4	0.09735075
21	0x3e84f12b	0.25965247
22	0xbe5ec53e	-0.2175493
23	0xbebc870c	-0.36821783
24	0x3db99181	0.09060956
25	0xbeefa693	-0.46806774
26	0xbe16d1b2	-0.1472843
27	0xbd8e675d	-0.06953309
28	0xbce4606f	-0.027878014
29	0xbcda152d	-0.026621426
30	0xbe56df93	-0.20983724
31	0xbddc77c0	-0.10765028
32	0x3e073f33	0.13207702
33	0x3df1a405	0.11798862
34	0x3c8cc411	0.017183335
35	0xbe93c3eb	-0.2886041
36	0xbe01441c	-0.12623638
37	0x3e1637eb	0.14669769
38	0x3dc5a457	0.09650486
39	0x3e13b2fd	0.14423747
40	0xbf1ce59e	-0.6128787
41	0xbe50a124	-0.2037397
42	0x3d442084	0.04788257
43	0x3e8090fb	0.2511061
44	0x3ddc60b4	0.10760632
45	0xbf049dd7	-0.51803344
46	0xbe4b76e7	-0.19869576
47	0x3dd7fb66	0.10545997
48	0x3e291f40	0.16515827
49	0x3e5bd52a	0.21468034
50	0x3ebf6e3f	0.373888
51	0x3f33c35d	0.70219976
52	0xbf1718b5	-0.59022075
53	0xbf21e5fd	-0.6324156
54	0x3dfa3dfb	0.12218853
55	0x3dff530d	0.124670126
56	0xbe8f2816	-0.2796027
57	0xbf869428	-1.0513964
58	0xbf3c050f	-0.7344522
59	0xbe33c0de	-0.17554042
60	0x3ee0fffe	0.43945307
61	0x3ec3a35a	0.38210565
62	0xbecb1686	-0.39665622
63	0xbeb36b3d	-0.35042754
64	0x3c9e9100	0.01935625
65	0x3f4bb055	0.79565936
66	0x3f6dda1b	0.9291093
67	0xbe477976	-0.19479927
68	0xbea7b58c	-0.32755697
69	0xbd8755e9	-0.06608183
70	0x3fadcec8	1.357873
71	0x3eedd576	0.4645192
72	0xbe8e8973	-0.2783924
73	0xbf39acc3	-0.7252924
74	0xbe9d18c3	-0.30682954
75	0x3ed12194	0.4084593
76	0x3e35205d	0.17688127
77	0x3ed45064	0.41467583
78	0xbe0dce3b	-0.13848202
79	0xbd5d1276	-0.053972684
80	0x3d4de9c9	0.050271783
81	0x3d8b8c2b	0.06813844
82	0x3e6b0453	0.22950868
83	0xbe6b9917	-0.23007618
84	0x3dc4b016	0.09603898
85	0x3dd1a157	0.10235851
86	0xbda41fbd	-0.08013866
87	0x3e0dbe71	0.13842179
88	0xbead6646	-0.3386709
89	0x3e077002	0.13226321
90	0x3e1986ca	0.14992824
91	0x3e5c0161	0.21484901
92	0x3e4a9c39	0.19786157
93	0xbeddcaf5	-0.43318906
94	0xbdb612af	-0.08890282
95	0x3d50851a	0.050908186
96	0x3df7fc95	0.12108723
97	0x3ed117a3	0.40838346
98	0xbf0270ef	-0.50953573
99	0xbe7e4e72	-0.24834612
100	0xbea74418	-0.3266914
101	0xbddb06eb	-0.10694679
102	0x3d618e06	0.055067085
103	0xbdcd2bc1	-0.10018111
104	0xbdc43a70	-0.095814586
105	0xbdd526af	-0.10407769
106	0xbcabe67d	-0.020983929
107	0x3dfbcf5d	0.12295411
108	0x3dec8b40	0.11549997
109	0x3cca4905	0.024693022
110	0xbe88bc04	-0.26705945
111	0x3c9e52bf	0.019326566
112	0x3d898cfb	0.06716343
113	0x3d9f467c	0.07777116
114	0x3defc8d5	0.117082275
115	0xbee9c321	-0.45656684
116	0xbe19548c	-0.14973658
117	0x3df7ac63	0.12093427
118	0x3e398831	0.18118359
119	0x3dd37d6f	0.10326659
120	0xbea6c673	-0.3257328
121	0xbd2bb120	-0.041916966
122	0x3dea9a59	0.11455221
123	0x3e4005e5	0.18752249
124	0x3b4be935	0.0031114344
125	0xbeb8ce83	-0.36095056
126	0xbc8bdc8f	-0.017072944
127	0x3beff92b	0.0073234043
128	0xbce04e76	-0.027381163
129	0xbd42906e	-0.04750102
130	0xbe44e9dc	-0.19229835
131	0x3dafc0d3	0.085817
132	0x3e29fde1	0.16600753
133	0x3da6caac	0.08144125
134	0xbd1116ad	-0.035422016
135	0xbe69e612	-0.22841671
136	0x3e03ff1c	0.12890285
137	0x3e0f3d46	0.13988218
138	0x3e3b2f9b	0.18279879
139	0x3d2a3ee6	0.04156389
140	0xbf1cf270	-0.6130743
141	0xbdc83fd8	-0.09777802
142	0x3e83ef9c	0.25768745
143	0x3eac0cda	0.33603555
144	0x3d424ab6	0.04743453
145	0xbf0ac28a	-0.54203093
146	0xbd3c486b	-0.0459675
147	0x3e5b0d81	0.2139187
148	0x3e8f1756	0.2794749
149	0x3e0cd278	0.13752162
150	0xbf2d0a15	-0.6759351
151	0xbfc0ea0a	-1.5071423
152	0x3f4f6141	0.8100777
153	0x3f802c98	1.0013609
154	0x3e141f4f	0.14465068
155	0x3f0096aa	0.50229895
156	0xbfcbf566	-1.5934265
157	0x3f134342	0.575245
158	0x3f244846	0.6417278
159	0xbc64faf6	-0.013975849
160	0xbeaa98fd	-0.33319846
161	0xbf2f24f7	-0.6841578
162	0x3d98b5bb	0.07456537
163	0x3dc2ba9f	0.095082514
164	0x3e6c0484	0.23048598
165	0xbf1e9d98	-0.6195922
166	0xbfc9142b	-1.570928
167	0xbf0f4ed8	-0.5597968
168	0xbe754901	-0.2395363
169	0x3e06cd3a	0.13164225
170	0x3f10d2ab	0.56571454
171	0xbfa00478	-1.2501364
172	0xbf61e010	-0.8823252
173	0xbf5a3898	-0.85242605
174	0xbf2d3938	-0.67665434
175	0xbdbb364d	-0.091412164
176	0x3daa3000	0.083099365
177	0x3d8d2011	0.06890882
178	0x3ca980db	0.020691326
179	0xbd46d5a3	-0.048543584
180	0x3d609187	0.054826286
181	0x3d57c2f3	0.052676152
182	0x3d3253fc	0.043537125
183	0xbd928f3a	-0.071562245
184	0xbd2e8662	-0.042608626
185	0x3e5660fe	0.20935437
186	0x3d62abba	0.055339552
187	0x3cc42df5	0.023947695
188	0xbcd5e7a4	-0.026111431
189	0x3e0b3d1c	0.1359753
190	0x3e54248a	0.20717064
191	0x3de63f61	0.11242557
192	0xbd1071e1	-0.035264853
193	0x3b0e14d2	0.002167989
194	0x3d30613d	0.043061484
195	0x3e1c582b	0.15268008
196	0xbb35ae5c	-0.0027722334
197	0x3cc88c98	0.024481103
198	0xbcba8777	-0.022769673
199	0x3dc088eb	0.09401115
200	0x3ea43b74	0.3207661
201	0xbf88734f	-1.0660189
202	0xc001d23d	-2.028457
203	0xbf4cdf33	-0.80028075
204	0xbca91b30	-0.020642847
205	0x3d2df54e	0.04247027
206	0xbf31198d	-0.6917961
207	0xc012f9b0	-2.2964897
208	0x3df6f7f4	0.12059012
209	0x3e2822b2	0.16419485
210	0x3dfb7151	0.12277473
211	0xbf23d898	-0.6400237
212	0xbe02cfcc	-0.1277458
213	0xbdbc3e0b	-0.09191521
214	0x3eafddf2	0.34349018
215	0xbf735754	-0.9505513
216	0xbfa4b5f4	-1.2868028
217	0xbf1aafea	-0.60424674
218	0xbeb64951	-0.3560281
219	0xbf147787	-0.57994884
220	0x3f109abd	0.5648611
221	0x3fecc638	1.8497992
222	0x3f82b8cf	1.0212649
223	0x3f333464	0.70001817
224	0xbf1b55c1	-0.60677725
225	0x3d0cc312	0.03436572
226	0xbd8d3e83	-0.06896689
227	0xbef4b215	-0.47792116
228	0x3ecaac78	0.39584708
229	0x3f18109b	0.5940034
230	0x3e979ca9	0.2961171
231	0x3eb92670	0.36162138
232	0xbf40a0e3	-0.75245494
233	0xbe8c7deb	-0.27439818
234	0x3e8ceb4c	0.27523267
235	0x3cd4c6b5	0.025973657
236	0x3b8365f7	0.004009958
237	0xbf33e200	-0.70266724
238	0xbebb0a14	-0.36531126
239	0x3df5af2d	0.11996303
240	0xbdaa1d4c	-0.08306369
241	0xbef0f25d	-0.47059909
242	0xbf4b4bc3	-0.7941248
243	0xbeaf13a6	-0.34194678
244	0x3e787bc1	0.24265958
245	0xbf12acf8	-0.5729518
246	0xbf2ae2a9	-0.66752106
247	0xbf8b4a7e	-1.0882108
248	0xbee1c384	-0.4409448
249	0x3e4b3f15	0.19848283
250	0xbd5316be	-0.05153536
251	0x3de0e796	0.109816715
252	0x3db6dbf9	0.08928675
253	0x3dd0e1d6	0.10199325
254	0x3d651de2	0.0559367
255	0x3dcef6ab	0.10105642

conv.3.bias f4 [16]
0	0xbe0e30bd	-0.1388578
1	0xbd866223	-0.06561687
2	0xbe7bb3b7	-0.24580275
3	0xbe2264ac	-0.15858716
4	0xbb2d8ee3	-0.0026482872
5	0xbbbb95e2	-0.0057246545
6	0xbde2a3ac	-0.11066374
7	0x3c761a8b	0.015020977
8	0xbdb5c926	-0.08876257
9	0x3d431b36	0.047633372
10	0xbe5d8be4	-0.21635395
11	0x3d57c425	0.052677292
12	0xbd943513	-0.072366856
13	0xbdbb6e88	-0.091519415
14	0xbde3fabb	-0.111318074
15	0xbe14360b	-0.14473741

fc.0.weight f4 [120, 256]
0	0x3e119aaa	0.14219156
1	0xbec84670	-0.3911624
2	0xbe19f5cd	-0.15035172
3	0x3f052ed9	0.5202461
4	0x3db2ad1d	0.08724425
5	0xbd211751	-0.039328877
6	0xbe0a1e5b	-0.13488142
7	0x3edf289e	0.43585676
8	0xbe2241d8	-0.1584543
9	0xbece7c02	-0.40328985
10	0x3e80ffe2	0.25195223
11	0x3f0bfbc4	0.5468104
12	0xbec2857f	-0.37992474
13	0xbebfc6d9	-0.37456396
14	0x3f1c03ea	0.6094347
15	0x3f830568	1.0236025
16	0x3f39b247	0.72537655
17	0xbef27ed2	-0.4736238
18	0x3dc08dde	0.09402059
19	0x3e67c4ed	0.22633715
20	0x3f6a82c8	0.91605806
21	0xbefb7e43	-0.49119768
22	0xbebd9970	-0.37031126
23	0xbedd64e4	-0.43241036
24	0x3e816a24	0.2527629
25	0xbeef1897	-0.46698448
26	0xbec6a74b	-0.3879951
27	0xbe2b87f6	-0.16751084
28	0xbd68c80b	-0.0568314
29	0xbeabd741	-0.33562663
30	0xbcba6dd3	-0.022757446
31	0x3d46ead3	0.04856379
32	0xbdf59b76	-0.119925424
33	0xbf073339	-0.52812535
34	0xbdcf18a5	-0.101121224
35	0xbde29839	-0.110641904
36	0x3e8efe88	0.27928567
37	0x3cb8e54a	0.022570271
38	0xbe8279d7	-0.2548358
39	0x3f09599c	0.5365236
40	0x3eddcb36	0.433191
41	0x3e5e693a	0.21719828
42	0x3b8e173c	0.004336266
43	0x3f63854c	0.8887527
44	0xbf073d69	-0.5282808
45	0x3eba0b5c	0.36336792
46	0x3e2fb97e	0.17160603
47	0x3e73efee	0.23821995
48	0xbd90ed7d	-0.07076547
49	0x3effa76e	0.49932426
50	0xbdb99ae3	-0.090627454
51	0x3f0955c2	0.5364648
52	0xbf2b9fd1	-0.67040735
53	0xbeae00d6	-0.33985013
54	0xbe3ed0aa	-0.18634287
55	0xbe7e745e	-0.24849078
56	0xbe597c7a	-0.2123889
57	0xbea67c60	-0.32516766
58	0xbd1fbeef	-0.039000448
59	0xbdad5efe	-0.08465384
60	0x3e9c5305	0.3053209
61	0xbd38a0e6	-0.04507532
62	0x3e91d9fd	0.28486624
63	0x3f38bb96	0.72161233
64	0x3ec92b05	0.39290634
65	0x3e464cb9	0.19365205
66	0x3f0baee1	0.5456372
67	0x3ecae637	0.39628765
68	0xbdc8d404	-0.09806064
69	0xbdcc354d	-0.09971104
70	0x3e0b97c1	0.13632108
71	0xbc7206c7	-0.014772124
72	0xbe6c0409	-0.23048414
73	0xbf16cd72	-0.58907235
74	0xbed11ee1	-0.4084387
75	0x3e80dd21	0.25168708
76	0x3e124906	0.14285669
77	0xbf375d9d	-0.7162722
78	0xbea0ca71	-0.3140445
79	0x3f560ab1	0.83610064
80	0x3e047458	0.12935007
81	0x3cd6f8c0	0.02624166
82	0x3dfb60fb	0.12274357
83	0xbe088fdd	-0.1333613
84	0x3e85d26b	0.261371
85	0x3cfe5dc4	0.03105057
86	0xbdc4b1b1	-0.096042044
87	0xbd419a9f	-0.0472666
88	0x3ea1aa08	0.31575036
89	0x3c96a6f1	0.01839015
90	0xbd136744	-0.035987154
91	0xbbc1e74b	-0.005917465
92	0x3e5e0682	0.2168217
93	0xbd66a216	-0.05630692
94	0xbc616011	-0.013755814
95	0x3c9acca3	0.018896407
96	0x3e9fde13	0.31224117
97	0xbec14d7b	-0.37754425
98	0xbe97663f	-0.29570195
99	0x3e82a53e	0.25516695
100	0x3f061c20	0.52386665
101	0xbebcf6ac	-0.36906946
102	0xbeffda7c	-0.49971378
103	0xbd8d2d36	-0.06893389
104	0x3f6c26fd	0.9224699
105	0xbef9b4fd	-0.48770896
106	0xbd09d04f	-0.033645924
107	0xbd3545a2	-0.04425586
108	0x3fa06e30	1.2533627
109	0x3dba0e3f	0.090847485
110	0xbd749632	-0.05971355
111	0xbe28a5d9	-0.16469516
112	0x3f28bef9	0.659164
113	0x3e668f2e	0.22515556
114	0x3e68c6e2	0.22732118
115	0xbd9e11b8	-0.07718223
116	0x3db13528	0.08652717
117	0xbdfc4da1	-0.12319494
118	0xbd7002d9	-0.058596466
119	0x3c23dd8c	0.010001551
120	0x3ed3e9fe	0.4138946
121	0xbee0b549	-0.4388831
122	0xbe7e2d53	-0.24821977
123	0xbdebe1fd	-0.11517713
124	0x3f6eff89	0.93358666
125	0xbf44c0da	-0.7685677
126	0xbea0f073	-0.31433448
127	0x3dc5aed8	0.096524894
128	0x3f7275b0	0.94710827
129	0xbd3286a6	-0.043585442
130	0xbee681ca	-0.45020896
131	0x3e86ae6a	0.26304942
132	0x3f76d2d6	0.9641546
133	0xbe726ff5	-0.2367552
134	0xbe85e4f4	-0.2615124
135	0xbeb3637f	-0.35036847
136	0x3eed9963	0.46406087
137	0xbe9d59a0	-0.3073244
138	0x3df86cd5	0.12130133
139	0x3d57d50f	0.052693423
140	0xbe02d567	-0.12776719
141	0xbe26dae1	-0.16294433
142	0x3f09b61b	0.53793496
143	0x3f5d2c39	0.86395603
144	0xbe192abd	-0.1495771
145	0x3e9668f1	0.2937694
146	0x3ee61a32	0.4494186
147	0x3d2216d3	0.039572548
148	0x3e4ca6bc	0.19985479
149	0xbeeeebbf	-0.46664235
150	0xbe05f53c	-0.1308183
151	0xbe30d16c	-0.17267388
152	0xbd01ad2c	-0.03165929
153	0x3e0aefdf	0.13568066
154	0x3eea02ba	0.45705205
155	0xbe0240d3	-0.12720041
156	0x3c39b21a	0.011333967
157	0x3e4c4ae6	0.19950446
158	0x3eaa26d2	0.33232743
159	0xbf58127a	-0.84403193
160	0x3e3499ba	0.17636767
161	0x3ea57dfa	0.32322675
162	0xbf1cdfb9	-0.61278874
163	0xbe4b5025	-0.19854791
164	0x3ef3506c	0.47522295
165	0xbdbd7044	-0.092499286
166	0xbe197c02	-0.14988711
167	0x3e8bc934	0.27301943
168	0x3eed0658	0.46293902
169	0xbe74551a	-0.23860589
170	0x3ead0e4a	0.33799964
171	0xbd7c3f02	-0.061583526
172	0xbcd24736	-0.025668722
173	0xbd899285	-0.067173995
174	0x3e9006ed	0.28130284
175	0x3f023929	0.5086847
176	0xbdb93a63	-0.090443395
177	0x3d21dd6f	0.039517816
178	0xbdca92f4	-0.0989131
179	0x3e39ced9	0.18145312
180	0xbedc20fc	-0.42993915
181	0xbe9abc43	-0.30221757
182	0x3d2e3167	0.042527582
183	0x3e7784a3	0.2417169
184	0xbef853cf	-0.4850144
185	0xbd354923	-0.0442592
186	0x3edc1b82	0.42989737
187	0x3ec31845	0.38104454
188	0xbed43302	-0.41445166
189	0x3ecabb2c	0.39595926
190	0x3ee2cfaa	0.4429906
191	0xbcfe8d7d	-0.031073326
192	0x3e32adb9	0.17449082
193	0xbe3f08e2	-0.18655732
194	0xbdd7b4a4	-0.10532501
195	0xbd9a40f7	-0.07531922
196	0x3dfcf676	0.12351696
197	0xbde29f57	-0.11065548
198	0xbe0834e4	-0.13301426
199	0xbde74b2a	-0.11293633
200	0x3e19b312	0.15009716
201	0xbd9e570c	-0.077314466
202	0xbd0b7e22	-0.034055836
203	0x3d8061c7	0.062686495
204	0x3e2d6ba9	0.169356
205	0xbd671f79	-0.0564265
206	0xbd2e2508	-0.042515785
207	0x3e7b8df0	0.24565864
208	0x3e97c72c	0.29644144
209	0x3d8d74d1	0.069070466
210	0x3b1afddb	0.0023649845
211	0xbe32def9	-0.1746787
212	0x3e86dcfb	0.2634047
213	0x3d9dc2bc	0.07703158
214	0xbd9dbfcc	-0.07702598
215	0xbdd10608	-0.102062285
216	0x3e90cccb	0.28281245
217	0x3da4a647	0.080395274
218	0xbd970d95	-0.073756374
219	0xbd316286	-0.04330685
220	0x3e803614	0.25041258
221	0xbc34cbee	-0.011034949
222	0xbd87b612	-0.06626524
223	0xbb6ac72c	-0.0035824282
224	0xbd027258	-0.031847328
225	0xbed7b363	-0.4212905
226	0xbe7c7727	-0.24654828
227	0x3f06ceb2	0.5265914
228	0xbe5ea093	-0.21740942
229	0xbed4b983	-0.41547784
230	0xbf1796ea	-0.5921465
231	0x3d52a5f4	0.051427796
232	0xbea0c5ba	-0.31400853
233	0xbe44511e	-0.19171569
234	0xbee8bc8d	-0.45456353
235	0xbdd7854e	-0.10523473
236	0x3ee10ab8	0.4395349
237	0xbebcc02c	-0.36865366
238	0xbf0b9cd1	-0.5453616
239	0x3e6efe3c	0.2333917
240	0xbcc09014	-0.023506202
241	0x3e248d50	0.16069531
242	0xbd69f35c	-0.05711685
243	0x3e5be12f	0.2147262
244	0x3e31c979	0.17362012
245	0xbd5960a4	-0.05307068
246	0xbf084229	-0.5322595
247	0x3d855b89	0.065115996
248	0x3ea4d0f3	0.32190666
249	0xbd9228ec	-0.071367115
250	0x3dac2d5e	0.084070906
251	0xbe415917	-0.18881641
252	0xbe68d0fd	-0.22735973
253	0x3e006a83	0.12540631
254	0xbcf2eb82	-0.029653315
255	0x3f5ac4fb	0.8545682

fc.0.bias f4 [120]
0	0x3c44c8a7	0.01201073
1	0x3a4b3653	0.00077519304
2	0x3c564d3b	0.013079937
3	0x3b234d13	0.0024917766
4	0x3dccebf3	0.10005941
5	0x3d2aeba4	0.04172863
6	0x3d28b6df	0.041190024
7	0x3cfec2fe	0.031098839
8	0xbcdbaf68	-0.026817039
9	0x3d3dc020	0.046325803
10	0x3dbb1a94	0.09135929
11	0xbb4bf804	-0.003112317
12	0x3cbab4c0	0.022791266
13	0xbd8bd485	-0.06827644
14	0x3cbc53ea	0.022989232
15	0x3c043bb7	0.008070878
16	0x3d921a38	0.07133907
17	0x3cd27119	0.025688695
18	0xbcd657a4	-0.026164837
19	0xbc92c70e	-0.017917182
20	0x3db8d1ab	0.09024366
21	0x3cc4a23a	0.024003137
22	0x3b535023	0.003224381
23	0xbc4e1d0d	-0.012580168
24	0xbe20aa5d	-0.15689988
25	0x3c017b16	0.007902881
26	0x3dd6b3bd	0.10483501
27	0xbd977bb4	-0.073966414
28	0xbc869312	-0.01642755
29	0xbe1dae84	-0.15398604
30	0x3d806ae7	0.0627039
31	0xbd8addd7	-0.06780594
32	0xbd270fe9	-0.040786657
33	0xbd38ec27	-0.045147087
34	0xbc8e740b	-0.017389318
35	0x3c7b1d29	0.015326777
36	0xbd0af8a8	-0.033928543
37	0xbce36d35	-0.027762035
38	0xbdf048cf	-0.11732637
39	0x3cda3470	0.026636332
40	0xbcd015b1	-0.025400968
41	0xbd6b23b5	-0.0574071
42	0x3e0f1d41	0.13976003
43	0x3d45b3db	0.048267227
44	0x3b84b003	0.0040493025
45	0xbdf9e0c5	-0.122010745
46	0x3e04b70b	0.1296045
47	0xbd86706b	-0.06564411
48	0x3c19ea92	0.009394305
49	0x3d848f20	0.064726114
50	0x3d412a43	0.047159445
51	0xbce097d3	-0.027416145
52	0x3d58cebf	0.052931543
53	0xbd982a8c	-0.0742999
54	0x3ca30a6c	0.01990243
55	0x3cf419af	0.029797403
56	0x3d03855d	0.032109607
57	0x3ca52eb6	0.020163875
58	0xbcf6e87a	-0.03014015
59	0x3dcc9de9	0.099910565
60	0x3df0e1fe	0.117618546
61	0x3d447a73	0.04796834
62	0xbb322910	-0.002718512
63	0x3dc8e648	0.09809548
64	0xbd8cfce3	-0.06884172
65	0xbd82e23a	-0.063908055
66	0x3c3299f5	0.010900964
67	0x3ce7dd7b	0.028303852
68	0xbc07d626	-0.008290803
69	0x3d2273f9	0.03966138
70	0xbd2f7694	-0.042837694
71	0xbd8c1c97	-0.068413906
72	0x3db374f3	0.08762541
73	0xbd641e5d	-0.05569302
74	0x3d7c1f5f	0.061553355
75	0x3d82d78e	0.0638877
76	0xbd6f19cd	-0.058374215
77	0xbcf15744	-0.029460557
78	0xbc6f497f	-0.014604925
79	0x3cb217e0	0.0217399
80	0x3d88a8fc	0.06672856
81	0xbc6e319e	-0.014538197
82	0xbc3cae99	-0.011516237
83	0xbd986891	-0.074418195
84	0x3d419532	0.047261424
85	0x3d97a39d	0.07404254
86	0x3c8588f7	0.016300661
87	0x3d305024	0.043045178
88	0xbd87c910	-0.066301465
89	0xbc9a709c	-0.018852524
90	0xbcd0f2ad	-0.025506342
91	0x3cfe487d	0.031040424
92	0x3d84e961	0.06489826
93	0x3cc39554	0.023874916
94	0xbe1ed925	-0.15512522
95	0x3d499fe6	0.049224757
96	0xbd376737	-0.044776168
97	0x3d3af878	0.045647115
98	0x3d502022	0.050811894
99	0xbd80f4fb	-0.06296726
100	0xbd47ca31	-0.04877681
101	0x3c145046	0.009052342
102	0x3c20030c	0.009766351
103	0x3e1dab3c	0.15397352
104	0x3d414e37	0.047193732
105	0xbd5691fb	-0.05238531
106	0x3dc81169	0.09768946
107	0x3e5752dc	0.21027702
108	0x3dcbdecc	0.099546045
109	0xbce9c576	-0.02853654
110	0xbd102d07	-0.03519919
111	0x3da76806	0.08174138
112	0xbd97e153	-0.07416024
113	0xbc84e844	-0.016224034
114	0x3da1bedf	0.07897734
115	0x3d4e0f81	0.050307754
116	0xbb007e09	-0.0019606373
117	0xbd36e671	-0.04465336
118	0x3c46d4bd	0.012135682
119	0x3ced4f60	0.028968513

fc.2.weight f4 [84, 120]
0	0xbda7ac66	-0.08187179
1	0x3ec95315	0.393212
2	0x3d43dd5a	0.04781852
3	0x3ea793ee	0.3273005
4	0xbe76533e	-0.24055192
5	0x3e1238c7	0.14279471
6	0xbd0aec41	-0.033916716
7	0xbeca9107	-0.39563772
8	0x3efcb774	0.49358714
9	0x3e16f2ed	0.14741106
10	0x3f2c0437	0.6719393
11	0x3daab772	0.08335771
12	0x3aa78e9f	0.0012783593
13	0xbe905831	-0.28192285
14	0xbe768825	-0.24075373
15	0x3e5be27b	0.21473114
16	0xbcbb7168	-0.022881225
17	0x3f1deea7	0.6169228
18	0xbf14390a	-0.57899535
19	0x3d13ffbf	0.03613257
20	0xbe675b00	-0.22593307
21	0x3e4f0a2b	0.20218723
22	0x3e48b312	0.1959956
23	0x3e09ce9f	0.13457726
24	0xbe529a59	-0.20566691
25	0xbe8f3414	-0.2796942
26	0x3e16590b	0.14682405
27	0x3ec53562	0.3851729
28	0x3cc02ce7	0.023458911
29	0xbf2b3659	-0.668798
30	0x3e94a357	0.29030868
31	0xbe145082	-0.14483836
32	0xbf1fbea5	-0.62400275
33	0xbda8c1de	-0.08240102
34	0xbd876a59	-0.06612081
35	0xbf47b2fa	-0.7800747
36	0x3f1278b2	0.57215416
37	0xbf3b4693	-0.7315456
38	0x3f01843d	0.50592405
39	0xbeaea697	-0.34111473
40	0xbdc6808a	-0.09692486
41	0xbeb71c68	-0.3576386
42	0xbf952d8e	-1.1654527
43	0x3ef28092	0.47363716
44	0x3e0c4884	0.13699538
45	0x3d8cafa9	0.06869442
46	0xbd788b16	-0.060679518
47	0xbf006810	-0.50158787
48	0x3e2ecea1	0.1707101
49	0xbf20dc06	-0.6283573
50	0x3e22533c	0.15852064
51	0x3e04bb23	0.12962012
52	0x3e908cc1	0.28232387
53	0xbd8b6041	-0.06805468
54	0xbc922f29	-0.017844753
55	0xbe513c39	-0.2043313
56	0x3e2fbf84	0.17162901
57	0xbdab631b	-0.08368512
58	0x3e26c3f1	0.16285683
59	0xbf0d1727	-0.5511345
60	0xbf292d1e	-0.6608447
61	0x3f2769e6	0.65395963
62	0xbea02314	-0.31276762
63	0x3e36059f	0.17775582
64	0x3d91a2ca	0.07111128
65	0x3c494098	0.012283467
66	0xbf8ad6ae	-1.0846765
67	0x3f318ae9	0.69352585
68	0x3db1d0a7	0.086823754
69	0x3ec99463	0.39371023
70	0x3e5e533d	0.2171144
71	0xbebdc369	-0.3706315
72	0xbe3b8da9	-0.18315758
73	0xbdda3ba9	-0.106559105
74	0xbe5ed2ce	-0.21760103
75	0xbd6a4c3d	-0.057201613
76	0x3e57ba1d	0.2106709
77	0xbe85307c	-0.26013553
78	0xbf21cb99	-0.6320129
79	0xbe6f5869	-0.2337357
80	0xbd305859	-0.043053005
81	0xbd460305	-0.048342723
82	0xbd09e402	-0.03366471
83	0xbe15eb43	-0.14640526
84	0x3e836b06	0.2566759
85	0xbf854596	-1.0411861
86	0xbfc6aa69	-1.5520755
87	0x3e302e3a	0.17205134
88	0x3e3b11e2	0.1826854
89	0xbf3599f2	-0.70938027
90	0xbe40d0c1	-0.18829633
91	0xbf27537b	-0.65361756
92	0x3eaf323d	0.34218016
93	0x3d9f3fce	0.07775842
94	0xbed7a6d0	-0.42119455
95	0x3f04f4e5	0.5193618
96	0xbc9a2475	-0.018816212
97	0x3eba46a0	0.36382008
98	0xbe6685b2	-0.22511938
99	0x3f3787cb	0.7169158
100	0x3b892689	0.004185502
101	0x3e2f3ba3	0.17112593
102	0x3f297b3d	0.6620367
103	0x3d2b5fb8	0.04183933
104	0xbf091e3a	-0.5356175
105	0x3d946b1d	0.07246993
106	0x3f6db478	0.928535
107	0x3cb78c99	0.02240591
108	0xbedd2cb2	-0.43198162
109	0xbdec1083	-0.11526587
110	0x3e8eee8d	0.27916375
111	0x3d94c9a1	0.0726502
112	0xbdaaa1c1	-0.08331633
113	0x3e10742a	0.14106813
114	0x3ca1f09a	0.019768048
115	0xbe252b31	-0.16129757
116	0x3ebd422b	0.36964545
117	0x3d479c27	0.048732903
118	0x3e17f401	0.14839174
119	0x3e3f0ebd	0.18657966
120	0x3d9cd0ae	0.0765699
121	0xbeff6a95	-0.49886003
122	0x3cc8c10c	0.024506114
123	0xbe271d1d	-0.163197
124	0xbebbf9ac	-0.36713922
125	0xbee0797f	-0.43842694
126	0xbe666d04	-0.22502524
127	0xbe9cc259	-0.30617025
128	0xbee34793	-0.44390544
129	0x3e7391d0	0.23786092
130	0xbf63f17b	-0.89040345
131	0xbdd13fb6	-0.1021723
132	0xbe20f98a	-0.15720192
133	0x3d9c3e4c	0.0762907
134	0xbece8f2e	-0.40343612
135	0xbdec1cc4	-0.11528924
136	0x3f50f66c	0.8162601
137	0xbdedf0bc	-0.11618182
138	0xbf696980	-0.91176605
139	0x3f718a4a	0.9435164
140	0x3e99ef2d	0.3006529
141	0xbdd1ff4a	-0.10253771
142	0x3e5903de	0.21192881
143	0x3cdc2fc8	0.026878253
144	0x3e424bfb	0.18974297
145	0xbe683163	-0.2267509
146	0xbe814019	-0.25244215
147	0x3ebb8ebf	0.36632344
148	0xbdef5f21	-0.11688066
149	0xbec1b65f	-0.3783445
150	0x3f189342	0.595997
151	0xbf2e058c	-0.67977214
152	0x3d2c867f	0.042120453
153	0x3e5bb43e	0.21455476
154	0x3eb231ae	0.34803528
155	0x3ea30616	0.3184058
156	0x3d4bb76a	0.049735464
157	0xbe92d55e	-0.2867841
158	0xbce5e50d	-0.028063321
159	0x3c61ce3d	0.013782081
160	0xbe75ec8a	-0.24016014
161	0xbef2e7e8	-0.47442555
162	0xbf45d02a	-0.7727076
163	0x3f15f7bb	0.5858113
164	0x3e8cebc8	0.27523637
165	0x3e5591ac	0.2085635
166	0x3f248a74	0.6427376
167	0xbebe27df	-0.37139794
168	0xbdff28f8	-0.12458986
169	0xbe9ec63d	-0.3101062
170	0x3e980b7e	0.29696268
171	0xbdadae7f	-0.08480548
172	0xbe0b8dc6	-0.13628301
173	0x3e8ccf48	0.27501893
174	0xbef06119	-0.4694908
175	0xbea1a144	-0.31568348
176	0xbe272808	-0.16323864
177	0x3ed4899b	0.41511235
178	0xbe336cc2	-0.17521957
179	0x3d9e3896	0.07725637
180	0x3e6719db	0.22568457
181	0xbf62f08c	-0.88648295
182	0xbe8603f5	-0.26174894
183	0xbe21c2ba	-0.15796939
184	0xbd581af5	-0.052760083
185	0x3d62f0da	0.055405475
186	0xbf0d550a	-0.55207884
187	0xbf9c64ad	-1.2218224
188	0x3ae13c0e	0.0017184035
189	0x3e92dc07	0.28683493
190	0xbdd6cb0a	-0.104879454
191	0xbe959896	-0.29217976
192	0xbb260398	-0.0025331732
193	0x3f2199c6	0.63125265
194	0x3df5a0fa	0.119935945
195	0xbdbd2b22	-0.092367426
196	0xbf69f88c	-0.9139488
197	0x3e62eeb0	0.22161365
198	0x3f054917	0.5206465
199	0x3d9c58bf	0.076341145
200	0xbdee9c08	-0.11650854
201	0xbd320f63	-0.043471705
202	0xbd0dfae8	-0.03466311
203	0xbe982c5a	-0.29721338
204	0x3e282cee	0.1642339
205	0x3d99bed9	0.075071044
206	0xbcf52def	-0.02992913
207	0xbe3a72b3	-0.18207817
208	0xbe1dac9f	-0.15397881
209	0xbf0abc7f	-0.5419387
210	0x3f1f849d	0.62311727
211	0xbd7ba748	-0.06143883
212	0xbe5c9c39	-0.21543969
213	0x3e05c710	0.13064218
214	0xbe8db0a7	-0.27673838
215	0x3dd2d18a	0.10293873
216	0x3d37f425	0.04491057
217	0x3e644095	0.22290261
218	0xbe2cbe39	-0.16869439
219	0x3d36e2df	0.044649955
220	0xbe12d198	-0.14337766
221	0x3a7f3372	0.0009735144
222	0xbf40e6e2	-0.753523
223	0xbe11b09d	-0.14227529
224	0x3f1e2df8	0.6178889
225	0xbce3be26	-0.02780063
226	0xbd887bbe	-0.06664227
227	0xbe8792ec	-0.2647928
228	0xbdb38333	-0.08765259
229	0xbd00e2ac	-0.03146617
230	0xbdf7dcb7	-0.12102645
231	0x3d1e3259	0.038622234
232	0x3ec7d3cf	0.39028785
233	0x3dd15a7f	0.10222339
234	0x3d1801c1	0.037111048
235	0x3ec40913	0.38288173
236	0xbe640975	-0.22269233
237	0x3ed64c3c	0.41855037
238	0x3e2b11a2	0.16705945
239	0x3da85a50	0.08220351
240	0x3f0b1fef	0.543456
241	0xbe8b08b9	-0.27155092
242	0xbee42e2a	-0.4456647
243	0xbeb319d0	-0.3498063
244	0xbe6b4738	-0.22976387
245	0x3e6b244e	0.22963068
246	0xbdea9aa8	-0.114552796
247	0x3e941e88	0.28929543
248	0x3e8af8af	0.27142856
249	0xbe5a28a3	-0.21304564
250	0xbdbd3060	-0.092377424
251	0xbcd5fbcd	-0.026121045
252	0xbe0a5c7b	-0.13511841
253	0xbeedd7a3	-0.4645358
254	0x3dc8e829	0.09809906
255	0xbe98f1bf	-0.29871938

fc.2.bias f4 [84]
0	0xbcf25b73	-0.029584622
1	0xbdc75853	-0.097336434
2	0xbdf564e4	-0.11982134
3	0xbbb440b5	-0.0055008777
4	0x3cb5f6d4	0.022212423
5	0xbd9393f5	-0.07205955
6	0xbc838344	-0.016053803
7	0x3e0020fa	0.1251258
8	0x3c3cb609	0.01151801
9	0xbcc47f85	-0.023986587
10	0x3d81f5a4	0.0634568
11	0x3e1851d5	0.14874966
12	0x3cf24983	0.029576069
13	0x3db3f737	0.08787387
14	0x3d7dec3a	0.06199286
15	0x3da97b7e	0.082755074
16	0x3dd9ff4e	0.10644399
17	0x3c43b81c	0.011945751
18	0xbdc5d9b5	-0.09660665
19	0xbd03d89e	-0.032189004
20	0xbdc2b3ef	-0.09506976
21	0xbc9d1345	-0.019174227
22	0xbd3be838	-0.045875758
23	0x3d6832d4	0.0566891
24	0xbd84fa88	-0.064930975
25	0x3cb7728f	0.022393493
26	0xbdbb47fc	-0.09144589
27	0xbbc6d920	-0.006068364
28	0xba09fff8	-0.00052642776
29	0x3d7f0a10	0.062265456
30	0x3d2994b5	0.041401584
31	0x3c889e44	0.01667703
32	0x3c31b068	0.010845281
33	0xbd8a9449	-0.067665644
34	0x3c901fd7	0.017593307
35	0xbdcea453	-0.10089936
36	0xbdcdf8ba	-0.100572065
37	0xbcca0d67	-0.024664594
38	0xbded2f86	-0.1158133
39	0xbd0ca252	-0.03433449
40	0x3de8a4ec	0.11359581
41	0x3d991804	0.07475284
42	0x3bbe2fb7	0.005804028
43	0xbd06c86a	-0.032905973
44	0x3cdcad4d	0.026938105
45	0xbbd07bf5	-0.006362433
46	0xbdeb64a1	-0.11493803
47	0xbd4574f9	-0.048207257
48	0x3d9fab31	0.07796324
49	0xbc194ed6	-0.009357175
50	0x3cc0472f	0.023471443
51	0xbd0e7c4c	-0.034786507
52	0x3d7f531c	0.06233512
53	0x3d161671	0.036642496
54	0x3dfd9143	0.12381222
55	0x3dbc95fe	0.09208296
56	0xbca702b8	-0.020387039
57	0xbdbac21e	-0.09119056
58	0xba0d3376	-0.00053863914
59	0x3e3bc6a1	0.1833749
60	0x3bd69074	0.006547982
61	0x3d02725a	0.031847335
62	0xbd55bf3d	-0.052184332
63	0xbdcb43c1	-0.099250324
64	0xbdeb8018	-0.11499041
65	0x3ce83b64	0.028348632
66	0x3c8ca554	0.017168678
67	0x3d5efd52	0.054440804
68	0xbd8c05bf	-0.068370335
69	0x39545187	0.00020248267
70	0xbc11c258	-0.008896433
71	0xbd803d93	-0.06261744
72	0xbddcd3a6	-0.10782556
73	0xbd8620b6	-0.06549208
74	0x3d7c2560	0.06155908
75	0xbccdfe54	-0.025145687
76	0xbd123f0f	-0.03570467
77	0x3d7edc85	0.062222023
78	0x3bee986a	0.0072813528
79	0x3d7842c4	0.060610548
80	0x3df3685a	0.11885138
81	0x3d71c938	0.059029788
82	0xbce32abe	-0.027730342
83	0xbd9c4234	-0.07629815

fc.4.weight f4 [10, 84]
0	0x3e88bacd	0.26705018
1	0xbf3502cf	-0.7070741
2	0x3d1e8214	0.03869827
3	0xbefb599b	-0.490918
4	0x3e44f62e	0.19234535
5	0xbf0cbab5	-0.5497239
6	0xbf413f09	-0.7548681
7	0x3ee0f8bf	0.43939778
8	0x3d55bac9	0.052180085
9	0xbed267b4	-0.41094744
10	0x3d859f49	0.06524522
11	0x3d8b3c04	0.067985564
12	0xbf81b6ea	-1.0133946
13	0x3e440416	0.19142184
14	0x3e51a4b0	0.2047298
15	0xbf7ce432	-0.987857
16	0xbd47441f	-0.04864895
17	0xbf1a5c8e	-0.6029748
18	0xbe86ba4f	-0.26314017
19	0x3e6d2b10	0.23160958
20	0xbe11c89d	-0.14236684
21	0x3e15137a	0.14558211
22	0xbf0a3c02	-0.53997815
23	0x3d9543fd	0.07288358
24	0x3f3d52d4	0.7395451
25	0x3e34de55	0.17662938
26	0x3e95c44f	0.29251334
27	0x3e876622	0.2644511
28	0x3e0ce4a8	0.137591
29	0xbf3ac95c	-0.729635
30	0x3eb2644e	0.3484215
31	0x3f01c468	0.5069032
32	0xbf8d06a1	-1.1017648
33	0x3f3fc420	0.7490864
34	0xbe4f66f6	-0.2025412
35	0xbf306586	-0.6890491
36	0x3ea5238b	0.3225368
37	0xbf1ed5a2	-0.6204473
38	0x3f017828	0.5057397
39	0xbed8bf4c	-0.42333448
40	0xbf3cbe9a	-0.73728335
41	0x3eca1f11	0.39476827
42	0x3e6dd65a	0.232263
43	0x3eb335fa	0.35002118
44	0x3d59781e	0.05309307
45	0x3e49b678	0.19698513
46	0x3ec2cc4e	0.38046497
47	0xbeaedddd	-0.34153643
48	0x3eaa4014	0.33252013
49	0x3e1f4429	0.15553345
50	0xbf8605a9	-1.0470477
51	0xbf59bf6c	-0.8505771
52	0x3e9bf65d	0.30461398
53	0x3e014abf	0.1262617
54	0x3ea96641	0.33085826
55	0xbef25873	-0.47333106
56	0xbf821e2b	-1.0165457
57	0x3e4fa1c6	0.20276555
58	0x3e47b4bb	0.19502537
59	0x3e17ae20	0.14812517
60	0xbf75a262	-0.959509
61	0x3e291606	0.16512308
62	0xbe98570c	-0.29753911
63	0x3eda0074	0.4257847
64	0xbda9db3b	-0.08293768
65	0x3f4fbfc0	0.8115196
66	0x3d37647f	0.044773575
67	0x3f0f1275	0.5588754
68	0x3ec66acc	0.38753355
69	0xbf87cfb3	-1.061026
70	0x3f909ade	1.1297262
71	0x3d819bc5	0.06328539
72	0x3e8b108a	0.27161056
73	0xbe243294	-0.16034919
74	0x3e35fef0	0.17773032
75	0x3ebcc986	0.368725
76	0xbf571980	-0.84023285
77	0x3dce1bb8	0.10063881
78	0x3e917313	0.28408107
79	0x3f13027c	0.57425666
80	0x3ea5d06e	0.32385582
81	0x3eaec0db	0.34131512
82	0x3ee40170	0.44532347
83	0x3e5a9d09	0.21348967
84	0x3e1ce3fa	0.15321341
85	0xbef67f4d	-0.48143998
86	0x3f4e2ccc	0.80537105
87	0xbe14deb8	-0.14538085
88	0x3f6c4b00	0.9230194
89	0x3d9481cf	0.072513215
90	0x3ea12194	0.3147093
91	0xbec7b661	-0.39006332
92	0xbf65d591	-0.89779
93	0xc014f348	-2.3273487
94	0x3e2b5419	0.167313
95	0x3e57a274	0.21058065
96	0x3e9b07b1	0.30279306
97	0xbec6362d	-0.38713208
98	0x3dbde730	0.09272611
99	0x3f1ad0e8	0.60475016
100	0xbd881de7	-0.066463284
101	0xbe3f7879	-0.186983
102	0x3f9fca7f	1.2483672
103	0xbf86430b	-1.048921
104	0xbe8350bc	-0.25647533
105	0xbf39374e	-0.72350013
106	0xbb74dfbe	-0.0037364806
107	0xbee3c94e	-0.4448952
108	0xbf02a2b1	-0.510295
109	0x3dda21a3	0.10650947
110	0xbf670da5	-0.90255195
111	0xbf7ff668	-0.9998536
112	0x3f800cd7	1.0003918
113	0x3f342a5a	0.70377123
114	0xbcf880d8	-0.030334875
115	0xbf122628	-0.5708947
116	0xbf55ef91	-0.83568674
117	0xbf0b9caa	-0.54535925
118	0x3e3eb47d	0.18623538
119	0x3ee5c99a	0.44880372
120	0x3e993dea	0.2993005
121	0x3ea9feb0	0.33202124
122	0x3e11a8aa	0.14224496
123	0x3f507f27	0.8144402
124	0x3fc97a06	1.5740364
125	0xbc29adbd	-0.010356364
126	0xbdbf6979	-0.09346289
127	0x3f64a7e5	0.89318687
128	0x3d47c553	0.048772167
129	0x3e876966	0.264476
130	0xbf390c83	-0.72284716
131	0x3ecb0b6e	0.39657158
132	0x3eda6882	0.42657858
133	0xbea2ff34	-0.3183533
134	0x3f5dda88	0.8666158
135	0x3f352d87	0.70772594
136	0x3e7072a6	0.23481235
137	0x3f266c13	0.6500866
138	0xbfc639a7	-1.5486344
139	0xc00c8853	-2.1958206
140	0xbf22b670	-0.6355963
141	0xbf176f3b	-0.591541
142	0xbef70845	-0.48248497
143	0x3e16cf87	0.14727603
144	0xbeef6f3a	-0.46764547
145	0x3e6e3305	0.2326165
146	0x3fa55db2	1.2919219
147	0xbf39693d	-0.72426206
148	0x3ebd99e4	0.37031472
149	0xbfa32ff1	-1.2749006
150	0xbdf044ad	-0.11731849
151	0xbefd961b	-0.49528584
152	0xbe2ca10e	-0.16858312
153	0xbf6f8968	-0.9356904
154	0xbee65a8f	-0.44990966
155	0xbeedb920	-0.46430302
156	0x3d6c573d	0.057700384
157	0x3deb7334	0.114965826
158	0xbdaf8e32	-0.085720435
159	0x3de16a13	0.1100656
160	0x3e0825cd	0.1329567
161	0xbed6a43b	-0.41922173
162	0xbf9543d9	-1.166133
163	0xbf044c15	-0.5167859
164	0x3eb80f5c	0.35949218
165	0x3e53eeed	0.20696612
166	0x3eae1fc6	0.34008616
167	0xbfad8990	-1.3557606
168	0xbcc83162	-0.02443761
169	0xbf423829	-0.75866944
170	0x3cc4f659	0.024043249
171	0xbee7fe59	-0.4531124
172	0x3e2ce8ae	0.16885635
173	0x3e85f461	0.2616301
174	0x3e8d071b	0.27544484
175	0x3f40db68	0.7533479
176	0x3e3af8a7	0.18258916
177	0xbe522f4e	-0.20525858
178	0x3f7781e5	0.9668258
179	0x3e040770	0.12893462
180	0x3e54e2f2	0.20789698
181	0x3e1f8890	0.15579438
182	0x3d93db1f	0.072195284
183	0x3ed9133a	0.4239748
184	0x3e5f6e2f	0.21819375
185	0xbea56d76	-0.32310075
186	0xbf53b701	-0.82701117
187	0xbc1cd0bd	-0.009571251
188	0xbf1910c3	-0.597912
189	0xbfabef42	-1.3432391
190	0x3e5f99b6	0.2183598
191	0x3e13f6ee	0.14449665
192	0xbee5c729	-0.4487851
193	0x3e34076a	0.17580953
194	0x3c47c1ce	0.012192203
195	0x3e42264e	0.18959925
196	0x3e3006a4	0.17190033
197	0x3efb7756	0.49114484
198	0xbff7785c	-1.9333606
199	0x3dd102ff	0.102056496
200	0x3ed1d839	0.40985277
201	0x3f9df184	1.233933
202	0x3d28cea8	0.041212708
203	0xbdfe2e60	-0.12411189
204	0xbe4f3a69	-0.20237125
205	0xbf545b5c	-0.82951903
206	0xbe109117	-0.14117847
207	0xbf4e797e	-0.8065413
208	0xbf951d86	-1.1649635
209	0xbfc2bbba	-1.521354
210	0xbeb78c02	-0.35849005
211	0x3e80dbfc	0.25167835
212	0x3e981411	0.2970281
213	0x3e4acc3a	0.19804469
214	0xbd30a524	-0.04312624
215	0xbf130c0e	-0.5744027
216	0xb9b53b3c	-0.00034567143
217	0xbe5d0a7e	-0.21586034
218	0xbe90626a	-0.28200084
219	0x3ed6b1c4	0.419325
220	0xbf1c8416	-0.6113905
221	0x3e336980	0.17520714
222	0x3e7fd7ab	0.24984615
223	0xbe1684db	-0.14699118
224	0x3e9c253c	0.30497158
225	0x3e556797	0.20840298
226	0x3d4b0ed6	0.049574696
227	0x3e0366d0	0.12832189
228	0x3e94bf07	0.29051992
229	0x3e462a61	0.19352104
230	0xbf2b1536	-0.6682924
231	0x3dda916f	0.106722705
232	0x3e4f52ee	0.20246479
233	0x3f2b821e	0.6699542
234	0xbe20980e	-0.15683004
235	0x3e23e0ac	0.16003674
236	0xbf855e85	-1.041947
237	0x3e4d0bc1	0.20024015
238	0xbf3663bf	-0.7124595
239	0x3e5726ff	0.2101097
240	0xbedda20c	-0.43287694
241	0xbf240c13	-0.64080924
242	0xbf0d7436	-0.5525545
243	0x3e8f2dc9	0.2796462
244	0xbf12c03a	-0.57324564
245	0x3e84e024	0.25952256
246	0x3f92fa12	1.1482565
247	0xbeeb165c	-0.45915496
248	0xbf875428	-1.0572557
249	0xbfd9ea2f	-1.7024592
250	0xbf95ac1c	-1.1693149
251	0x3e553d76	0.20824227
252	0xbe040e4b	-0.12896077
253	0x3dee9847	0.11650138
254	0xbe1db67a	-0.1540164
255	0xbd18f487	-0.037342574

fc.4.bias f4 [10]
0	0xbdae716b	-0.085177265
1	0x3c9c8b31	0.01910934
2	0x3df56bc4	0.11983445
3	0xbdd2ee64	-0.10299376
4	0x3d7ad8b5	0.061241824
5	0xbe030c85	-0.12797745
6	0x3de5627b	0.11200424
7	0x3cd1a19e	0.02558976
8	0xbdfeffe4	-0.12451151
9	0xbdc7786d	-0.09739766
